…
to predict in new data the cases of abnormal...\n\n**Objective**\nTo train an autoencoder to detect outliers in new datasets.\n\n**General Procedure**\nImport data - Normalise data - Set up model architecture - Interpret and validate results\n\n# Experiment details\n\n## Dataset\n**Name**\nart daily small noise\n\n**Samples**\n4032\n\n**Dimensions**\n1\n\n**Time Series**\nYes\n\n# Model Architecture\n\n## Sequential Convolutional\n_________________________________________________________________\n Layer (type)                Output Shape              Param #   \n\n conv1d (Conv1D)             (None, 16, 32)            256       \n                                                                 \n dropout (Dropout)           (None, 16, 32)            0         \n                                                                 \n conv1d_1 (Conv1D)           (None, 8, 16)             3600      \n                                                                 \n conv1d_transpose (Conv1DTra  (None, 16, 16)           1808      \n nspose)                                                         \n                                                                 \n dropout_1 (Dropout)         (None, 16, 16)            0         \n                                                                 \n conv1d_transpose_1 (Conv1DT  (None, 32, 32)           3616      \n ranspose)                                                       \n                                                                 \n conv1d_transpose_2 (Conv1DT  (None, 32, 1)            225       \n ranspose)                                                       \n                                                                 \nTotal params: 9,505\nTrainable params: 9,505\nNon-trainable params: 0\n\n## Sequential LSTM (for time series)\n_________________________________________________________________\n Layer (type)                Output Shape              Param #   \n\n lstm (LSTM)                 (None, 64)                16896     \n                                                                 \n dropout_2 (Dropout)         (None, 64)                0         \n                                                                 \n repeat_vector (RepeatVector  (None, 32, 64)           0         \n )                                                               \n                                                                 \n lstm_1 (LSTM)               (None, 32, 64)            33024     \n                                                                 \n dropout_3 (Dropout)         (None, 32, 64)            0         \n                                                                 \n time_distributed (TimeDistr  (None, 32, 1)            65        \n ibuted)                                                         \n                                                                 \nTotal params: 49,985\nTrainable params: 49,985\nNon-trainable params: 0\n\n# Results\n\n## Sequential Convolutional\n![](attachment:20221116T093411391Z441)\n**Reconstruction Error Threshold**\n0.19561091\n\n\n## Sequential LSTM (for time series)\n![](attac
…
