…
        "width": 254.68749999999994,
        "height": 319.06249999999994
      },
      "color": "#125059"
    },
    {
      "id": "21061b72-a690-4b45-b72e-965c4e098082",
      "title": "Models",
      "type_specific": {
        "message": "{\"ops\":[{\"insert\":\"Model Architecture\"},{\"attributes\":{\"header\":1},\"insert\":\"\\n\"},{\"insert\":\"Sequential Convolutional\\n_________________________________________________________________\\nLayer (type)                 Output Shape              Param #   \\n=================================================================\\nconv1d_4 (Conv1D)            (None, 16, 32)            2944      \\n_________________________________________________________________\\ndropout_8 (Dropout)          (None, 16, 32)            0         \\n_________________________________________________________________\\nconv1d_5 (Conv1D)            (None, 8, 16)             3600      \\n_________________________________________________________________\\nconv1d_transpose_6 (Conv1DTr (None, 16, 16)            1808      \\n_________________________________________________________________\\ndropout_9 (Dropout)          (None, 16, 16)            0         \\n_________________________________________________________________\\nconv1d_transpose_7 (Conv1DTr (None, 32, 32)            3616      \\n_________________________________________________________________\\nconv1d_transpose_8 (Conv1DTr (None, 32, 1)             225       \\n=================================================================\\nTotal params: 12,193\\nTrainable params: 12,193\\nNon-trainable params: 0\\n_________________________________________________________________\\n\\n_________________________________\\n\\n\\n\\nRun the trials with the help of the notebook \\\"unsupervised.ipynb\\\":\\n\\nSelect which models to run.\\nTo start, execute all the notebook cells in order (e.g. click the play icon at the top of the notebook)\u00a0\\n\"}]}"
…
